checkpoint.pth (torch_old, 28435 bytes, 6 tensors)

fc1.weight f4 [64, 37]
00000000: ce86 b03d a23f e03d c592 babd 8358 1dbd
00000010: 1069 16be 0bfa 3bbe 9df1 773e 8708 d53d
00000020: 2972 cf3c 43d9 45be 145b 24be 6c72 493c
00000030: e277 1cbd e5e8 f93c 4c40 cb3d 9be7 953c
00000040: c23a 47bd 2e3e 353e fd1f c03d 5969 1ebe
00000050: 68ff 20bd fce5 513e 328f 0b3e 40f2 16bc
00000060: 062c babb 4d78 5bbe aa27 873e 17e5 03bc
00000070: 9b46 40bd 4e34 863d 438e ddbe 4474 4c3e
00000080: 326a d73d 1881 6f3d eda8 a9be 3d93 65bc
00000090: 3420 46bb d26b cd3d 4355 dd3d ad39 b13c
000000a0: 071a 333e cc89 9b3c c946 823e a142 c4be
000000b0: caf7 8fbe c8b6 c3be bf7f 22bf 2a5e eb3d
000000c0: 07fa 363d df71 aabd dc3f a13e 4128 043e
000000d0: 02b1 273c 5272 fa3d fcee 973d 3642 bf3d
000000e0: 899a 553d 538c 17be b729 e5bd 896c 583c
000000f0: e43f 4f3d 56c0 9b3d 4aa4 4d3c b7a9 053d
00000100: 8dd8 e83c 3376 903b c7ab 1e3e 1898 ddbc
00000110: bb8e 173e 8ad5 823e 4db7 0a3e e639 493e
00000120: b9f2 803d aa0e b23c 387d b53d 6a1c 623d
00000130: 1106 1c3e 7297 d9bd e65b 5e39 cd30 d1bc
00000140: 0434 e6be 0e8f 703e 7c81 983d 7037 aebe
00000150: 1925 3c3e 464b 5dbd 1014 de3c 202d 3bbe
00000160: 605b 4fbe 2a35 e4bd 01ce 4fbe 170b 2c3e
00000170: 160c 883e 7f1a 84be 7bfc 92be b884 9b3d
00000180: 6b43 d23d 1157 953d 50e9 d0be c3e0 b6be
00000190: 4b7b 503e b753 173e a230 8f3d 00ae 5ebe
000001a0: 4369 bcbd 4744 023e cba8 04bd b6b7 6bbe
000001b0: 4b75 29bb 5c2c f13d d494 cfbc bffd 883e
000001c0: 43c6 c2be 0c50 063e c100 bdbe bb09 18bf
000001d0: eca5 6d3d 9131 323e 5bf0 5fbe 06ea 4bbe
000001e0: 4e7c de3e 456a 28be 6a3b a6bd 67eb ff3d
000001f0: 22e3 9b3c a87c 71bd 5c2b 083b 5a46 52bd
00000200: ffe9 7fbe fbf2 52be 8a09 a6be 8c0e 753d
00000210: 7852 11be 5841 8cbc 8a84 2f3c 6e9c ccbc
00000220: ba45 383d 0138 ad3d 88dc e8bc b9b4 533b
00000230: 86fb 0e3c b235 003e 43c2 533c e5eb 1b3c
00000240: 972e 893d 206e 03be 8e64 0f3c 9e18 87bc
00000250: 3d08 bd3d b31e e8bd 3005 2bbe 1eaa b8be
00000260: c871 aabe d122 b33d a450 b53d 0ea4 dc3c
00000270: 09b6 aebd 2e3c 50be f39d e7bd c9c0 fcbc
00000280: 0f16 3f3d 7dc5 063d 9632 f6bd 90d6 30be
00000290: 5560 4c3d beff d9bc b99b 6b3d 6c86 3b3e
000002a0: e3fa b7bd 6136 7fbc 8f5a a03d a4fe 553d
000002b0: 0c92 8d3e 985c 843c 21be 82bd 41f1 243e
000002c0: ecd4 063e e634 843e 0214 4f3d 166f 5bbe
000002d0: 6aa2 e43d b8b8 8b3e 3bc7 ef3e 5624 293c
000002e0: 0004 c53b 96eb 283c ae44 92bb bb3b 9fbc
000002f0: cdb2 873d 6e02 d3bb a329 b83e 2d3b 72bd
00000300: 4232 01bf c28a f5be 3ab0 dbbf e7cd 34bd
00000310: cdef 9ebd 632b 7d3d 77c8 6bbd 0dcc 993d
00000320: 1889 ce3b fa3c abbc 2e14 c23c b928 c43b
00000330: 6fcd 0cbe ce6a 863d 428a da3d 62d4 143e
00000340: ae6f ca3d d165 cb3d 5bd8 923b 8093 2b3e
00000350: 9c1a 433d 95ba c43c c516 e5bc 3075 66bd
00000360: 365e 8e3b 8250 d83d c0f2 473e 5020 3d3e
00000370: 4822 fbba 46c3 b73c 0e35 1c3d b943 6fbe
00000380: 11f5 66be 1e64 f8be 34e8 e0be a6aa 053e
00000390: 451e a6be 3078 8bbe 2b34 91bd 5591 023e
000003a0: ab72 10be 4bed 29bd 56a6 9dbb 047f f4bc
000003b0: b490 24be 0bf5 0bbe 01a2 50bd 2ae6 95be
000003c0: 5c49 23bd 98ad 3d3e 3ad2 2fbe 32f6 e2be
000003d0: b3df 4a3e a665 d2be f553 9b3d dbf8 a6bd
000003e0: 8524 543d ad37 24be afa4 9bbe 3e0d f4bd
000003f0: 1899 e13d 33ce 0cbe 81dc dabe 9c49 8bbd
0.08619462 0.10949637 -0.09110025 -0.03841449 -0.14688516 -0.18357103 0.24213262 0.10402017
0.02532299 -0.1932116 -0.16050369 0.012295347 -0.038200267 0.03050656 0.09924373 0.018298915
-0.04864002 0.17699501 0.09381101 -0.15469874 -0.039306074 0.20497888 0.13628843 -0.00921303
-0.0056815175 -0.2143261 0.2639745 -0.008050225 -0.046942335 0.06552945 -0.432726 0.19966227
0.10518302 0.058472723 -0.33136693 -0.014012155 -0.0030231597 0.10030331 0.10807278 0.021633947
0.17490397 0.018986605 0.2544463 -0.38332084 -0.28118736 -0.3822539 -0.63476175 0.1149257
0.04467204 -0.083225004 0.31494033 0.1290598 0.010235073 0.12228836 0.074186295 0.093388006
0.05214933 -0.14799623 -0.11189597 0.013209471 0.05059804 0.076050445 0.012551377 0.032632556
0.028423572 0.0044086217 0.15495215 -0.027050063 0.14800541 0.25553542 0.13546486 0.19650993
0.06296296 0.021735508 0.08861774 0.05520288 0.15236689 -0.10624589 0.00021205805 -0.025535965
-0.4496156 0.23492071 0.07446572 -0.3402667 0.18373527 -0.054026864 0.027109176 -0.18278933
-0.202497 -0.11142953 -0.20293428 0.16801105 0.2657172 -0.25801465 -0.28708252 0.075936735
0.10266765 0.07291997 -0.40803003 -0.35718355 0.20359533 0.14778028 0.06991698 -0.21746063
-0.091997646 0.12721358 -0.032387536 -0.23019299 -0.0025857266 0.11776039 -0.025339521 0.26756093
-0.38041887 0.13116473 -0.36914638 -0.5938985 0.058019564 0.1740172 -0.21869032 -0.19913492
0.43454212 -0.16446789 -0.08116801 0.12496071 0.019029204 -0.058956772 0.0020777797 -0.051336624
-0.24991606 -0.20600502 -0.32429153 0.059828326 -0.14191616 -0.017121002 0.010712752 -0.024976935
0.04498837 0.084579475 -0.02842547 0.0032303764 0.00872696 0.12520483 0.012924734 0.009516691
0.066983394 -0.12834978 0.008752001 -0.01649123 0.09230087 -0.113339804 -0.16701198 -0.3606729
-0.33289933 0.08746875 0.088532716 0.026933696 -0.08530814 -0.20335457 -0.11309423 -0.030853646
0.046651896 0.032903183 -0.12021367 -0.17269349 0.049896557 -0.026611205 0.057521556 0.18312997
-0.089834 -0.01557693 0.07829773 0.052244797 0.27650487 0.016157433 -0.063839205 0.16107656
0.13167161 0.25821608 0.05055619 -0.21429095 0.111637905 0.27289367 0.46831688 0.010323605
0.0060124397 0.010310074 -0.0044637537 -0.019437661 0.066259004 -0.0064394986 0.35969266 -0.059138466
-0.5046731 -0.47957426 -1.7163155 -0.044141676 -0.07760582 0.061808955 -0.057564225 0.07509623
0.006302964 -0.0209031 0.023691263 0.0059863 -0.13750242 0.0656334 0.10670902 0.14534143
0.098845825 0.09931529 0.004481358 0.16755486 0.0476328 0.02401475 -0.027964959 -0.056264102
0.004344727 0.10562231 0.19526196 0.18469357 -0.0019159997 0.02243198 0.038136534 -0.23365678
-0.22554423 -0.48513883 -0.43927157 0.13053378 -0.3244497 -0.27240133 -0.070900284 0.12750752
-0.14106242 -0.041486066 -0.0048110886 -0.029845722 -0.16070825 -0.13667695 -0.05093575 -0.29277164
-0.039864883 0.18523252 -0.17170039 -0.44328457 0.19811897 -0.41093177 0.07584373 -0.08152934
0.05179264 -0.16036864 -0.3039908 -0.11916588 0.110155284 -0.13750534 -0.42746356 -0.06801149

fc1.bias f4 [64]
00000000: 9882 373e bebd 993c 07ef e7bd ae73 85bd
00000010: 9431 3f3e 44a9 5f3a c30e 40be 6b75 233e
00000020: 8577 09bd 8900 5dbe ae0e 433e 36a4 073e
00000030: cee7 643e 48c8 893d 4426 423d 518a aebd
00000040: e503 92bd faef 9b3d abe7 e53b 269d 56be
00000050: bd60 0abe f3f3 b7bc 5081 233d 93b0 01be
00000060: d171 63be d69a f03d 438e bcbd 8961 92bd
00000070: 8605 6f3d 6c03 453e c1ae dabd c03f 17be
00000080: 68d7 103e 03b5 713d 34f8 27bc 802f 3d3d
00000090: ea57 40bd e832 b03d c9d9 33bc 97ea c1bd
000000a0: 70c6 12bd 516a 7bbd ca5c a8bd aa78 463e
000000b0: 7169 903b b605 0bbe 2161 1b3d 9629 29be
000000c0: fd98 1fbd d656 db3c a684 32be 0e30 fe3d
000000d0: 894e bebc ef37 5dbb cf4f 32be 1d46 a03b
000000e0: f093 2d3c ec7b 1dbb e9a1 2bbe d76a 5dbe
000000f0: 925f 4cbc c944 b3bc 125e 813d 03b2 c13b
0.17920911 0.018767234 -0.11324888 -0.06516205 0.18671256 0.00085319974 -0.18755631 0.1596276
-0.03356125 -0.21582235 0.19048569 0.13246235 0.22354051 0.06727654 0.047399774 -0.085224755
-0.07129649 0.07614131 0.0070161424 -0.20958385 -0.13513465 -0.022455191 0.039918244 -0.12665014
-0.22211386 0.117482826 -0.09206822 -0.071475096 0.058354877 0.19239587 -0.10677863 -0.14770412
0.14144671 0.059010517 -0.010252047 0.046187878 -0.04695884 0.086034596 -0.010977217 -0.094685726
-0.035833776 -0.061380688 -0.08220823 0.19381967 0.004407101 -0.13576397 0.037934426 -0.1651977
-0.03896426 0.026774805 -0.17433414 0.124115095 -0.023230808 -0.0033755263 -0.17413257 0.0048911707
0.010594353 -0.0024030162 -0.16760983 -0.21622787 -0.012473958 -0.021883385 0.063167706 0.005911113

fc2.weight f4 [64, 64]
00000000: d1c4 603c ee9f 723d 7417 163d 86a8 563e
00000010: 779d 433e d570 45be d15a 523e 838f 37be
00000020: ae7d 9b3d 69c4 bb3d 1b07 31bc 7ce7 aabe
00000030: 2f63 55be be62 62be 4e17 89bc c3e4 823d
00000040: bbe4 debc d47c 90be 4cf2 193e 6ca4 3a3d
00000050: e366 51bc 8dbb 42be e39b ef3d 1507 fbbd
00000060: a1ba 12be f91c 6fbe 0f1a 013e 3385 b23c
00000070: 2d2d 5a3b b5cb 37be 430e 6d3e 5c52 6abe
00000080: 698d b83d fde3 84be dd34 0cbd 88f8 04be
00000090: 0c4a 263d a336 47bd e6d0 00be 0a96 cfbe
000000a0: c8af 13be 3aa2 d13d b6e1 f93d e396 42bc
000000b0: 9f35 46bd b41f 28bc 180d 9a3c 16ff ec3d
000000c0: 238f b7bd 5376 8f3d a019 84bd 98ca d5bc
000000d0: 3c8c babd 6973 073f 2a04 123e 564d cc3d
000000e0: 4340 a0bc 052d f2bd f5c6 82be 0e4d 333d
000000f0: 6717 0fbe a7ac 0a3e 60e5 f5bd d2bd a9bd
00000100: 8f05 f53d d2bf fd3d a06a b53c 4a20 9a3d
00000110: 5b4a f03b 2c8e 263e 7a05 27be 41d3 003d
00000120: 347a 6fbe 590b 7cbd f27b d33d 4bd1 9b3e
00000130: 3e7a e33c 9fcd bc3e 9e97 d4be 0c72 2b3d
00000140: a060 8e3d 7bf7 da3d d889 e5bd f646 0ebb
00000150: 0d18 8a3d 9115 03be 3dbe 113e e587 d1bd
00000160: dbdd cdbb 0f3f aa3c 740d 3fbe df56 b03d
00000170: 69bf 1c3d 5cf3 77bd 9981 2fbb 872f 27be
00000180: 0e0a 13bd 6742 1d3e a291 9d3d 69ec 32bd
00000190: 3bb3 03bd 1d34 dc3d f1bf 6d3e 60c4 88bb
000001a0: c21f 003e 8515 1fbe ef9a 6ebe 8111 5d3e
000001b0: cfec c3bd 2361 ddbd 38d3 6fbd 4646 d6bd
000001c0: 29c6 8abb 291e 9cbd 59c5 d1bc c186 1a3e
000001d0: 27cd cfbd fa6c 9bbd 3fa4 123e d179 603d
000001e0: f951 a2bd 97af 963d bcd3 d43d e56e 45be
000001f0: 6ff5 0dbd 947a 09be 9c4e 57bd 61af 4ebd
00000200: ff0d 20be 0daf 10bd 05b1 1ebe b2df cbbd
00000210: e778 2e3d 3443 433e e4e5 44be a62d d7bd
00000220: c0fe dfbc ab05 e3bd d7ba 853d 7944 3d3d
00000230: 74da 363d 8bc2 043e 939b 9c3a 80c2 63bb
00000240: 88ac 35bd 60ef 8a3e 73ae 063e b2ba 38be
00000250: 7161 ddbd 07d2 6fbd 22ae 7dbd 71c5 86bc
00000260: 3c4c c73d fae6 a13d 0b2b 983d 9bba 393e
00000270: fcb5 f53d 3d5e 4b3e d5a6 1ebe 2b15 18bd
00000280: d916 a0bd 9c66 9bbd 9cbd 73be 8009 b23d
00000290: 9c5b 003e ac45 f93d 9afa 403e bfb8 f73c
000002a0: c6a8 a53e 3ed0 25be 2516 1abe efb8 7dbe
000002b0: 8854 23be a6ff c6bd 8c26 a33d d8f5 06be
000002c0: 7c65 963d 83fd 0fbe 00f3 01be b62d 3f3d
000002d0: f18e f1bd 6eae 81be f667 c9bd cc54 073d
000002e0: e00d acbd 8556 44bd df23 eb3d 4893 4bbd
000002f0: 3085 8bbd b52d 04be 2bc3 e13d c006 d5bb
00000300: 9e9a c6bd be00 073c bd39 1c3e 93f4 b4be
00000310: b48b 3f3c 8409 343e 142c 1bbd 1bd2 25be
00000320: ccb3 96be d825 84bd 452d 1ebd fcf0 3d3e
00000330: b611 7abd bebb 7b3e 2598 2dbe b557 8e3c
00000340: b4ac 103e 5eaf 123e 66ca 46bd 7795 0f3e
00000350: 9e48 dd3d 1875 7c3d 80f3 e03d cdf8 af3d
00000360: 27a4 6e3e 1649 62be 69fb 23be 34a2 653d
00000370: e6b7 823d c6f1 263c 7ec0 a9bc 701c 95bd
00000380: 5233 33be 8acf a2be f6f2 46be e68b d13d
00000390: 2344 debd 0b35 033e 960c 7dbe 05a4 8d3d
000003a0: 15c7 483e c946 dfbb 4a54 6bbe 640f f33d
000003b0: 9b26 4ebd 0851 913d 199b b63c 043d 3fba
000003c0: c77e 3d3d 9c8d 213d f7bc f4bd 72ad 603d
000003d0: cbb2 eb3c bb53 0e3e 8e72 8d3c 7656 e0bc
000003e0: 2379 1fbe 9078 67bd 8575 cfbc 6679 023e
000003f0: 3100 dfbd 994b 0d3e 52e4 b0bd f8ad e73d
0.0137188 0.059234552 0.03664346 0.20962724 0.19103037 -0.19281323 0.20542456 -0.17925839
0.07592331 0.09168322 -0.010804917 -0.33379734 -0.20838617 -0.2210798 -0.016734745 0.06391289
-0.027208677 -0.28220236 0.15033835 0.04556696 -0.012780878 -0.19016857 0.11699655 -0.1225721
-0.14329006 -0.23350896 0.12607597 0.02179203 0.0033291087 -0.17948802 0.23149972 -0.2288298
0.09011347 -0.2595519 -0.0342301 -0.12985432 0.04059796 -0.04863609 -0.12579688 -0.40544158
-0.14422524 0.102360204 0.12201254 -0.0118767945 -0.04839098 -0.010261465 0.018805072 0.11572091
-0.08962848 0.070049904 -0.064502 -0.02609758 -0.09108779 0.52910477 0.14259401 0.09975688
-0.019561892 -0.11824993 -0.25542417 0.043774657 -0.13973771 0.13542424 -0.120066404 -0.082881585
0.11963951 0.123901024 0.02214557 0.0752569 0.0073330826 0.16265172 -0.16310683 0.031451467
-0.2338646 -0.06153426 0.10326375 0.30433115 0.02776825 0.36875626 -0.41521925 0.04185681
0.069520235 0.106917344 -0.11207932 -0.0021709776 0.067428686 -0.12801196 0.14232726 -0.10230998
-0.0062825507 0.020782022 -0.18657476 0.08610319 0.03826848 -0.06053482 -0.0026780127 -0.16326724
-0.03589826 0.15357362 0.07693793 -0.04368249 -0.03215335 0.10752127 0.23217751 -0.0041738003
0.12512115 -0.15535553 -0.2330129 0.21588708 -0.09566652 -0.10809543 -0.058551043 -0.10462622
-0.0042350483 -0.0762294 -0.025606798 0.15090467 -0.101465516 -0.07589145 0.14320467 0.054803673
-0.07925791 0.0735771 0.103919476 -0.19280584 -0.03465789 -0.13425666 -0.052565202 -0.050460223
-0.15630339 -0.03532319 -0.15497215 -0.09954776 0.04259577 0.19068605 -0.19228321 -0.105067536
-0.027343154 -0.110850655 0.065297775 0.04620788 0.044641927 0.12964837 0.001194822 -0.0034753382
-0.04435399 0.27135754 0.13152485 -0.18039969 -0.10809601 -0.058549907 -0.061933644 -0.01645157
0.097313374 0.079053834 0.07430085 0.1813759 0.119976014 0.19860168 -0.15493329 -0.037129562
-0.07816858 -0.075879306 -0.23802799 0.08693218 0.12534946 0.12171492 0.18845597 0.030239461
0.32355326 -0.1619272 -0.1504751 -0.24777578 -0.15950215 -0.0971673 0.079663366 -0.1317972
0.07343575 -0.14061551 -0.12690353 0.046674453 -0.11794842 -0.25328392 -0.09834282 0.033039853
-0.08401084 -0.047934074 0.11481451 -0.049701005 -0.06812513 -0.12908061 0.110235535 -0.006501049
-0.0969746 0.008239923 0.152564 -0.35342845 0.011691023 0.17581755 -0.037883833 -0.1619343
-0.2943405 -0.064525306 -0.03861739 0.1854896 -0.061052047 0.24583337 -0.1695257 0.017375806
0.14128381 0.1432471 -0.048532866 0.1402186 0.10804866 0.061635107 0.10983944 0.08592377
0.23304807 -0.22098193 -0.16013874 0.056062892 0.06382732 0.010189479 -0.02072167 -0.07280815
-0.17500046 -0.31798965 -0.1942862 0.10231762 -0.1085284 0.12813203 -0.24711832 0.0691605
0.19607194 -0.006813858 -0.22981372 0.1186817 -0.050329786 0.070955336 0.022290753 -0.0007295164
0.046263482 0.03944169 -0.11950105 0.05485291 0.028771779 0.13899128 0.017266538 -0.027384978
-0.15573554 -0.05651146 -0.025324592 0.12741622 -0.108887084 0.1379837 -0.08637299 0.11312479

fc2.bias f4 [64]
00000000: 8d59 bfbd 1767 713e dd74 e93d 1c5b 3fbd
00000010: 5ac6 1f3e fa2b 37be 8e49 c7bd 7d8c f63c
00000020: 2ab5 d939 b4d7 ab3e a60c cbbd 8dd0 fb3d
00000030: 211b 113d 3f90 48bd 128e 5eba b087 203d
00000040: c81b bbbc 2abe 05be d2f1 88bd 40dd a43e
00000050: 451e 233e ddc5 6d3e f454 54bc b406 b6bd
00000060: 3699 e5bd 584a b3bc e671 a63c 4632 40be
00000070: 13b6 41bd b572 803d 567c d63d a457 98bd
00000080: c29c 1cbd 4f52 f4bb afe3 333e f921 d3bc
00000090: febb adbd fc3b 4abd 0774 ad3e 1922 c1bb
000000a0: bc77 e73d 8456 d53e 8e93 4d3e 0021 58bd
000000b0: 3751 953c e80a 52bd 2418 773e 080e 74bd
000000c0: ae13 ab3c 5d5f aeba 73ec f9bd 08d5 ab3e
000000d0: b077 83bd 098d 18be d536 203e 172a 1dbe
000000e0: 30ac 53be d577 16be 4b5a 8ab9 21ad 52bd
000000f0: b6d2 223c 2a63 a93c f8f8 aa3d 5a9a 86b8
-0.09343252 0.23574482 0.11399243 -0.046717748 0.15603009 -0.1788787 -0.09730826 0.030096287
0.00041524443 0.33563006 -0.09914522 0.12295637 0.035426263 -0.04896569 -0.0008489798 0.0391919
-0.022840396 -0.13060823 -0.066867486 0.3220005 0.15929516 0.2322001 -0.0129597075 -0.08887997
-0.11210863 -0.021886036 0.020317983 -0.18769178 -0.04729278 0.06271879 0.10472934 -0.07438591
-0.038235433 -0.007456101 0.17567323 -0.025773035 -0.08483122 -0.04937361 0.33877584 -0.0058939573
0.113021344 0.4166757 0.20075819 -0.052765846 0.018227203 -0.051279932 0.24130303 -0.059583694
0.020883407 -0.0013303567 -0.12203302 0.33560967 -0.06419313 -0.1489755 0.15645917 -0.15348087
-0.20671153 -0.1469415 -0.00026388685 -0.05143464 0.009937933 0.020677168 0.08348268 -6.418368e-05

fc3.weight f4 [4, 64]
00000000: 457a 813e 16fa 2c3e acbd 4b3e 390b 7cbe
00000010: b83e b63e 6ded 58be b10e 893d 4093 95be
00000020: c227 f63e efe6 053e 15ec 2dbe 457c 9d3d
00000030: f39f 963e 4b02 c23d 6f5a 6d3d 426a 04bf
00000040: b99d e6bc a55e 2a3c 0592 733e d873 333e
00000050: 0dde ef3d 2df7 7d3e ce08 983e 7b61 86be
00000060: d0e7 873e 3c36 923d 6d85 94be 92f6 57be
00000070: 7789 933c db73 d83e c0a3 0dbf 2849 cc3d
00000080: b97b 773e 5724 753d d71b e53d 0d2b 923e
00000090: b1bd 6f3e 7633 03bf 0895 333e de33 883e
000000a0: ed4c b93e 7541 e83d d164 28bb 5c78 9bbd
000000b0: fd51 2f3f 5f23 ad3c 7d2c 293e d4d5 f23e
000000c0: d69f 2ebd 6580 a33e 2644 623c e242 1d3d
000000d0: ecef f53e 1ccf 7bbd 1056 2d3e f7f7 453e
000000e0: 3866 51be c17e 113e f48b 123d 3275 ac3e
000000f0: 11e5 6fbe 5e8d 983c b167 82bd 289f 903e
00000100: 502c f63e 9b0d f83c 7026 283e 6dc7 27be
00000110: 51d7 903e 12ef 82be 79cb 2bbd 184a 39be
00000120: d5d6 d63e e9ca 043e dfae a8bd 53c0 243e
00000130: 143e 323e 13f8 923e d83e 443e ede4 003c
00000140: 5a19 ebbd 4637 483c 0981 22bf 0f81 bb3d
00000150: a29e f73d e4b6 3c3e 0c22 0e3e bad5 e5bd
00000160: 4987 163f fb5e 65bd bd44 e2bd 1696 3abe
00000170: 0d72 17bf 2415 d53e 18e1 673d a6b1 613e
00000180: 3578 803e ea3f 8cbd b95b 483e 0e5d 7e3e
00000190: cebf a43e 19c2 7d3c dbd5 2b3e 092b 893e
000001a0: 5344 843e 3e54 483e 30f4 bb3c c5e0 9a3c
000001b0: c40f ce3e ad97 11be 47bc 243e d874 d93e
000001c0: fa92 ef3c 6384 453e 66e9 923c abfd 683d
000001d0: 802f ee3e f775 7c3d 13d5 413e 7d94 a73e
000001e0: ddb3 94be 37fb c5be d586 d43d fe09 1ebe
000001f0: 9db9 03be bd6d 1ebe ef7b 8bbe 85f1 bb3e
00000200: 1a64 3cbe d31a 133e 84a4 843e a923 8c3d
00000210: 5809 ec3e 0df2 cc3c 274d d23e f540 2abe
00000220: 0be7 793e 9b44 0d3e a187 64be d30d b73e
00000230: 891f 993e c2cd 38be cda8 91bd ffa1 403e
00000240: 9cb1 003d f4a0 0cbe aaec acbd d95d d03d
00000250: b65d ea3d 7645 793e 4569 f03e f3f5 26bd
00000260: c945 e83e 318c 92be 1ab9 3bbe 9562 c83b
00000270: 6599 08bd 0aab d93e da5d 16be 081c b93c
00000280: 4310 b4bd 8419 893e 2255 373e 7dc1 bc3e
00000290: 0b67 003a 724a a9be 03e1 1d3e 9704 5c3c
000002a0: 06e2 ee3d c051 2b3e 6ff4 eb3d 968c 5738
000002b0: dac6 303e 116c ec3b fb2e 413e a28f 433f
000002c0: f0e6 343e bed2 443b f916 89be 83e3 aa3e
000002d0: 06e4 66be 8fd2 24be dd77 2c3e b173 873d
000002e0: c569 b6be a70a 053e 8b46 f43d 0699 ccbe
000002f0: 9589 abbd 03d7 3c3e 7692 9ebe 2a75 4d3e
00000300: e954 013e 3ffb 143e cd83 0c3e a261 33be
00000310: d622 963e 9f40 59bd feec 6dbe c2e2 5ebe
00000320: 430d 093f eae9 403e 8dd8 23bd d0ed 063e
00000330: 08cd 8f3e bd45 d63e f3b6 603e f80b 3f3e
00000340: 4202 db3d 6664 82be 30fe 52be ae81 1a3e
00000350: 03c8 653d 37c3 0f3e 27a6 083e 54b0 413e
00000360: 752d 87be a549 43be d182 02be 5394 ff3d
00000370: b5a5 003f 757d 4c3e 5d13 0abe 9e4a 873e
00000380: bf79 133e 1cdc 843e 95c0 f93c bbcb b13e
00000390: e10a 33bc af14 36bd e7ca 513e 6d57 ad3e
000003a0: 742a 1a3e 7e6a 593e f993 1d3e 9982 b7bd
000003b0: 0b26 3a3f e123 a2be 5be9 1c3e 5a46 8e3c
000003c0: 5974 f63b 8899 3cba a6c2 d33d c7dd 3b3e
000003d0: 5478 023f cb05 1ebd 220d 003e 6e70 063f
000003e0: 4b9b 8cbe b5d3 d93d 7726 cdbd 5bb5 04bf
000003f0: 0103 97be 97d1 47be 6545 06ba 3a31 753e
0.25288597 0.16892275 0.19896573 -0.24613656 0.35594726 -0.21184321 0.06692255 -0.29213905
0.48077208 0.13076375 -0.1698459 0.07689718 0.29418907 0.094730936 0.057947572 -0.51724637
-0.02815138 0.010398542 0.23786171 0.1752466 0.11712275 0.24801321 0.29694217 -0.26246247
0.26544046 0.07139251 -0.29008046 -0.21090153 0.018009884 0.4227589 -0.5532799 0.09974891
0.2416829 0.05984911 0.11186951 0.2854847 0.23412205 -0.512504 0.1753732 0.26602072
0.36191502 0.1134061 -0.0025694857 -0.07591316 0.6848448 0.02113503 0.16520877 0.47428763
-0.0426329 0.31933895 0.013810193 0.038393863 0.48034608 -0.06147681 0.16927361 0.19332872
-0.2044915 0.14208509 0.035778 0.33683163 -0.23427226 0.018622097 -0.06367434 0.28246427
0.48080683 0.030279925 0.16420913 -0.16384669 0.28289273 -0.2557302 -0.041942094 -0.18094671
0.4196078 0.12968029 -0.08236479 0.16088991 0.17406493 0.2870489 0.19164598 0.00786708
-0.11479445 0.012220209 -0.6347814 0.09155475 0.12090804 0.18429142 0.13880175 -0.11222406
0.5880018 -0.055998784 -0.11048267 -0.18221316 -0.591584 0.41617692 0.05661115 0.22040424
0.2509171 -0.06848128 0.1956624 0.24840185 0.32177585 0.015488171 0.16780798 0.26790646
0.25833377 0.19563386 0.022943586 0.018906007 0.40246403 -0.14218016 0.16087447 0.42471957
0.029244889 0.19288783 0.017933559 0.05688254 0.46520615 0.061635938 0.18928938 0.32730475
-0.29043475 -0.38668224 0.1037728 -0.15433499 -0.12863775 -0.1547155 -0.2724299 0.36707702
-0.1839756 0.14365701 0.25906765 0.06842739 0.4610088 0.025017763 0.41074488 -0.16626342
0.24404542 0.13795702 -0.22317363 0.35752735 0.29906872 -0.1804724 -0.07112274 0.18811797
0.03141938 -0.13733274 -0.084435776 0.1017415 0.11443655 0.24342903 0.46955314 -0.0407619
0.45365742 -0.28622583 -0.1833233 0.0061152675 -0.033349413 0.42513305 -0.14684239 0.022596374
-0.08792164 0.2677728 0.1790357 0.3686637 0.0004898167 -0.3306461 0.15417866 0.013428829
0.11664204 0.16730404 0.115212314 5.1390925e-05 0.17263356 0.007215031 0.18865578 0.7639104
0.1766622 0.0030032839 -0.2677534 0.33376703 -0.22547922 -0.16095947 0.16842599 0.06613863
-0.3562757 0.12992345 0.119275175 -0.39960498 -0.08375851 0.18441395 -0.30971116 0.20064226
0.12630047 0.14548968 0.13722153 -0.17517713 0.29323453 -0.053040143 -0.23234937 -0.21766189
0.5353586 0.18839231 -0.04000144 0.13176656 0.28086114 0.4185008 0.2194479 0.1865691
0.1069379 -0.25467223 -0.20604777 0.15088531 0.05609895 0.14039312 0.13344632 0.1891492
-0.26401868 -0.19071062 -0.12745215 0.124794625 0.5025285 0.19969733 -0.13483949 0.26424116
0.14401911 0.2594918 0.030487338 0.34725747 -0.010927887 -0.04445332 0.20487557 0.33855763
0.15055257 0.2123203 0.15388478 -0.089604564 0.727143 -0.31667998 0.15323393 0.01736753
0.007521194 -0.0007194509 0.103398606 0.1834632 0.50964856 -0.038579743 0.1250501 0.52515304
-0.2746223 0.10636083 -0.10017102 -0.51839226 -0.2949448 -0.19513546 -0.0005122035 0.2394456

fc3.bias f4 [4]
00000000: 6c4b 893e d22f 613e cc3e c13d b53e 133e
0.26815355 0.21990898 0.09435806 0.1437939
